"C:\Program Files\Python313\python.exe" "C:\Users\rayen\School\Computer Vision\A4\Comp_Vis_Assignment_4\main.py"
Total images: 3685
Training set: 2652 images
Validation set: 664 images
Test set: 369 images
Using device: cuda
CUDA available: True
CUDA device count: 1
Current device: 0
Device name: NVIDIA GeForce RTX 5080
----------------------------------------------------------------
        Layer (type)               Output Shape         Param #
================================================================
            Conv2d-1         [-1, 16, 112, 112]             448
       BatchNorm2d-2         [-1, 16, 112, 112]              32
         LeakyReLU-3         [-1, 16, 112, 112]               0
         MaxPool2d-4           [-1, 16, 56, 56]               0
            Conv2d-5           [-1, 32, 56, 56]           4,640
       BatchNorm2d-6           [-1, 32, 56, 56]              64
         LeakyReLU-7           [-1, 32, 56, 56]               0
         MaxPool2d-8           [-1, 32, 28, 28]               0
            Conv2d-9           [-1, 64, 28, 28]          18,496
      BatchNorm2d-10           [-1, 64, 28, 28]             128
        LeakyReLU-11           [-1, 64, 28, 28]               0
        MaxPool2d-12           [-1, 64, 14, 14]               0
           Conv2d-13           [-1, 64, 14, 14]          36,928
      BatchNorm2d-14           [-1, 64, 14, 14]             128
        LeakyReLU-15           [-1, 64, 14, 14]               0
        MaxPool2d-16             [-1, 64, 7, 7]               0
           Conv2d-17             [-1, 32, 7, 7]          18,464
      BatchNorm2d-18             [-1, 32, 7, 7]              64
        LeakyReLU-19             [-1, 32, 7, 7]               0
          Flatten-20                 [-1, 1568]               0
           Linear-21                  [-1, 512]         803,328
        LeakyReLU-22                  [-1, 512]               0
          Dropout-23                  [-1, 512]               0
           Linear-24                  [-1, 343]         175,959
          Sigmoid-25                  [-1, 343]               0
================================================================
Total params: 1,058,679
Trainable params: 1,058,679
Non-trainable params: 0
----------------------------------------------------------------
Input size (MB): 0.14
Forward/backward pass size (MB): 9.08
Params size (MB): 4.04
Estimated Total Size (MB): 13.27
----------------------------------------------------------------

Phase 1: Training the model...
…
